lab_04/models/fashion_mnist_model_epoch_19.pth (torch, 338539 bytes, 6 tensors)

linear1.weight f4 [100, 784]
0	0xbd09cfcf	-0.033645447
1	0xbbe5c4c4	-0.0070119817
2	0xbc8c920e	-0.017159488
3	0xbc1d7c9c	-0.009612229
4	0xbd020990	-0.0317474
5	0x3c627058	0.01382073
6	0xbd085830	-0.033287227
7	0xbb909b2a	-0.0044130282
8	0x3c18eb64	0.009333465
9	0xbc9e1846	-0.019298684
10	0x3bc35622	0.0059611956
11	0xbb51ab73	-0.003199306
12	0x3ce26aa0	0.027638733
13	0x3d0e6929	0.034768257
14	0xbb8c59da	-0.004283172
15	0x3cbf9b89	0.023389595
16	0xbc862147	-0.01637329
17	0xbb3e533e	-0.0029041315
18	0xbd08a4f7	-0.033360448
19	0x3c1bb28a	0.009503016
20	0x3b5c6937	0.003363205
21	0xbc880cdd	-0.016607696
22	0xbc98fff9	-0.018676745
23	0x3c0eb7a2	0.008710774
24	0x3d0707ce	0.032966428
25	0x3c8aabdd	0.016927654
26	0xbb65c66e	-0.00350609
27	0xbae3e6f3	-0.0017387554
28	0x3ca634c1	0.020288827
29	0xbccba4cf	-0.02485886
30	0x3c40dfbf	0.011772095
31	0xbc47da82	-0.012198092
32	0x3ca3a74c	0.019977234
33	0xbc658212	-0.014008062
34	0x3a501b9d	0.0007938685
35	0x3c4d8444	0.012543742
36	0x3ca66ecc	0.020316504
37	0xbc6e2ae6	-0.014536595
38	0x3ccacaec	0.024754964
39	0xbcba787a	-0.022762526
40	0x3c16d278	0.009205453
41	0xbca8e52c	-0.02061709
42	0x3c9b212d	0.018936718
43	0x3cd91f04	0.026504047
44	0xbb2374b1	-0.002494138
45	0x3c41cb6f	0.0118282875
46	0xbcb3781b	-0.021907857
47	0xbd2fb3b4	-0.042895988
48	0x3cc4ed65	0.02403898
49	0x3c9deea2	0.019278828
50	0x3c789bf7	0.015173904
51	0x3cd8d6dd	0.026469642
52	0x3c3dc4ce	0.011582566
53	0x3c928471	0.017885419
54	0x3cef1a89	0.029187458
55	0xbbede7f6	-0.007260318
56	0xbce4892f	-0.027897445
57	0xbc90cc7a	-0.017675627
58	0xbba72475	-0.0051007816
59	0xbb9b733e	-0.0047439625
60	0xbabfb48b	-0.001462595
61	0x3ca49c78	0.020094141
62	0x3c720a89	0.01477302
63	0xbcc5c51b	-0.024141839
64	0xbc40099d	-0.011721042
65	0xbbb4b6da	-0.0055149617
66	0x3ce219c3	0.027600175
67	0xbaec54e6	-0.0018030673
68	0x3a1ebebc	0.00060556433
69	0x3c40ed0f	0.011775269
70	0x3c143160	0.009044975
71	0x3c120a65	0.008913611
72	0xbcb89a66	-0.02253456
73	0x3d1d59f4	0.038415864
74	0x3c99bd48	0.018767014
75	0xbcb096e4	-0.021556325
76	0xbccbbef4	-0.024871327
77	0x3b408c70	0.0029380582
78	0x3ca65515	0.020304242
79	0xbce43e02	-0.027861599
80	0xbc83f9d0	-0.01611033
81	0x3c51255c	0.012765255
82	0xbcc50d7c	-0.024054281
83	0xbb88d0da	-0.0041752877
84	0xbcdd5d61	-0.027022066
85	0x3d06518e	0.03279262
86	0x3c980398	0.018556401
87	0xbd0c9a92	-0.034327097
88	0xbcaced8c	-0.021109365
89	0x3c6619f1	0.014044271
90	0x3c0ee7c8	0.008722253
91	0x3c8d3d3f	0.017241118
92	0xbc9ae59a	-0.01890831
93	0xbbff1780	-0.007784784
94	0x3cc57193	0.024102008
95	0xbc913ff2	-0.017730687
96	0x3ba8c83a	0.005150822
97	0x3cfb768c	0.030696176
98	0x3d0b06d1	0.033942048
99	0x3c83afb8	0.016075
100	0x3c9fce8c	0.019507669
101	0x3cbaf813	0.02282337
102	0x3a575f6c	0.0008215818
103	0xbb865927	-0.0040999833
104	0x3d07c196	0.033143602
105	0x3d266b1e	0.0406295
106	0x3c9c6072	0.019088957
107	0xbc8e99aa	-0.017407257
108	0xbd0cb44b	-0.03435163
109	0xbd1e546b	-0.038654726
110	0xbadfeec5	-0.0017084709
111	0xbc67ac83	-0.014140251
112	0xbc15f340	-0.009152234
113	0xbbb9fac5	-0.005675646
114	0x3d05494c	0.032540604
115	0x3d0198b6	0.031639777
116	0xbba43ff8	-0.0050125085
117	0xbbdada61	-0.006678865
118	0x3cf94637	0.030428989
119	0x3c50a1c5	0.012733881
120	0xbc868c13	-0.016424214
121	0x3cca537e	0.024698015
122	0x3d2ce5ec	0.042211458
123	0xbc9e198f	-0.019299297
124	0x3b4cb9c0	0.0031238645
125	0x3ca16846	0.019703042
126	0xbc8e3535	-0.017359355
127	0xbcace68f	-0.021106033
128	0x3d06da8f	0.032923277
129	0xbbdfb45b	-0.00682692
130	0x3cd59a27	0.026074482
131	0x3c4876ff	0.012235402
132	0x3caa2490	0.020769387
133	0xbc3a575e	-0.011373369
134	0xbab8f383	-0.0014110658
135	0x3cb4b078	0.022056803
136	0x3c47d7bd	0.012197432
137	0xbc77b6dd	-0.015119282
138	0x3a81f70c	0.0009915545
139	0x3cd8a105	0.026443968
140	0xbd019344	-0.031634584
141	0x3cb280a7	0.021789862
142	0xbc52dde7	-0.012870288
143	0xbc2ded7d	-0.010615704
144	0x3c6cc7b2	0.014451908
145	0xbcb6ac0c	-0.022298835
146	0x3c4ca783	0.01249111
147	0x3d5fd8ff	0.054650303
148	0x3d0d1921	0.034447793
149	0xba8e183b	-0.0010840961
150	0xba5f2c56	-0.00085133815
151	0x3d13e0b8	0.03610298
152	0x3cb1c6c8	0.021701232
153	0x3d083be1	0.03326023
154	0xbc734f5a	-0.014850462
155	0x3c6e275c	0.014535751
156	0x3c0ad9fc	0.008474823
157	0x3c07b677	0.008283249
158	0x3d125a07	0.035730388
159	0x3cf0a959	0.029377626
160	0x3d23fb52	0.0400346
161	0x3cffd239	0.031228172
162	0x3cc5da28	0.024151877
163	0xbc008b7c	-0.007845756
164	0xbd1acdd9	-0.037793968
165	0xbd180a93	-0.03711946
166	0xbce4e17e	-0.027939554
167	0xbcca503a	-0.024696458
168	0x3c8594ad	0.016306246
169	0x3c16d33d	0.009205637
170	0xbc5c64e6	-0.01345179
171	0xbd032877	-0.032021012
172	0x3d068e1e	0.032850377
173	0x3d178976	0.036996327
174	0x3d1bbf85	0.038024444
175	0x3d741935	0.05959435
176	0x3b884983	0.004159154
177	0xbc1c0cc9	-0.009524533
178	0xbc81433b	-0.015779128
179	0x3b8cbd4f	0.0042950283
180	0xbccc207b	-0.024917832
181	0x3d0cd147	0.03437927
182	0x3bbd4757	0.0057763266
183	0x3c934e6b	0.017981729
184	0xbcb558a3	-0.022136992
185	0xbbd0024d	-0.0063479305
186	0x3b917262	0.0044386843
187	0xbb3ecf11	-0.002911512
188	0x3d4a4fb7	0.04939243
189	0xb802a6ee	-3.114988e-05
190	0x3cab689b	0.020923903
191	0xbcd9d868	-0.026592448
192	0xbc635bd8	-0.013876878
193	0xbca36163	-0.019943899
194	0x3bf3d77d	0.0074414597
195	0x3cbb2cc4	0.022848494
196	0x3c00ecb5	0.007868935
197	0xbbc30a46	-0.0059521524
198	0xbc5e851d	-0.013581541
199	0x3cb2d11d	0.021828229
200	0xbc236342	-0.009972395
201	0x3d1bcd5a	0.038037635
202	0x3bd8ede9	0.006620158
203	0x3d63d9d5	0.055627663
204	0x3d73b7de	0.05950152
205	0x3d165eac	0.03671138
206	0x3cd39c7a	0.02583145
207	0x3c93324d	0.017968321
208	0xbc40ad14	-0.011760015
209	0x3ba8a604	0.0051467437
210	0x3c835286	0.016030561
211	0xbc4073a5	-0.011746322
212	0x3a0a243e	0.0005269683
213	0x3c745d6e	0.0149148535
214	0xbd0d56f3	-0.03450675
215	0xbce09a5f	-0.02741736
216	0xbbe6ce8d	-0.0070436657
217	0x3ca1f6c4	0.019770987
218	0x3b235061	0.0024919736
219	0x3b76c2aa	0.003765265
220	0xbcb60d04	-0.022223003
221	0xbd19c8e3	-0.037545096
222	0xbb796029	-0.00380517
223	0x3cb4dd2e	0.022078123
224	0xbcb82efb	-0.02248334
225	0x3ce492f7	0.02790211
226	0x3b4d6911	0.0031343142
227	0x3ce7550b	0.028238794
228	0xbd08d8f3	-0.033410024
229	0xbca61841	-0.020275237
230	0x3d0ffb5a	0.035151817
231	0xbbbae754	-0.005703846
232	0xbb86632b	-0.004101177
233	0x3d073dcb	0.033017915
234	0x3cbfac95	0.023397723
235	0xbce72603	-0.028216368
236	0x3cfcadaf	0.030844538
237	0xbb171da3	-0.0023058436
238	0x3d056454	0.032566383
239	0xbcc40d4a	-0.023932118
240	0xbd21d5a4	-0.039510384
241	0xbcf4855e	-0.02984875
242	0xbbbb3111	-0.0057126363
243	0xbcf57608	-0.029963508
244	0x3c46d6bf	0.01213616
245	0xbb83ac1d	-0.0040183202
246	0xb9e8ea3a	-0.00044425
247	0xbba03eb8	-0.004890289
248	0xbc6738b6	-0.014112642
249	0xbd512495	-0.051060278
250	0x3c2fece3	0.010737631
251	0xbcbff161	-0.023430528
252	0x3ca8162d	0.020518387
253	0x3cea70fb	0.028618326
254	0xbc9505a5	-0.018191168
255	0xbb5214d2	-0.0032055867

linear1.bias f4 [100]
0	0x3ca62e8b	0.020285865
1	0x3c4f18f0	0.012640223
2	0xbc1a998c	-0.0094360225
3	0x3d3733ff	0.04472732
4	0x3d4cd135	0.050004203
5	0x3ccab695	0.024745265
6	0xbcc529ff	-0.024067877
7	0x3d252a14	0.040323332
8	0x3b9a02ea	0.0047000544
9	0xbbc8a391	-0.0061230143
10	0x3d9ad16f	0.075594775
11	0x3d3ba2a1	0.045809392
12	0xbd052305	-0.0325041
13	0xbb5fc5c2	-0.0034144972
14	0xbc2278df	-0.009916513
15	0x3d121c74	0.035671666
16	0x3c68418e	0.014175786
17	0x3cb0b5d7	0.021571083
18	0x3cd321a6	0.02577288
19	0x3d343060	0.043991446
20	0x3d3a6eff	0.04551601
21	0x3d05cabd	0.03266405
22	0x3b24f8a9	0.0025172627
23	0x3c2d1bed	0.01056574
24	0x3c10c135	0.008835127
25	0x3ceacfd9	0.028663563
26	0x3ce093e7	0.027414275
27	0xbc8778b0	-0.01653704
28	0x3bd095eb	0.006365528
29	0x3d0f2cd3	0.034954857
30	0x3d204082	0.03912402
31	0xbce25e9d	-0.027633006
32	0x3c42109c	0.01184478
33	0xbab817d7	-0.0014045191
34	0xbbb82ef3	-0.005620831
35	0x3ccef706	0.025264274
36	0xbc3f7a39	-0.011686855
37	0x3d25baef	0.040461477
38	0x3d230c05	0.039806385
39	0x3d40aab7	0.047037806
40	0xbc7e4079	-0.015518301
41	0xbcb42961	-0.021992387
42	0xbceb50f8	-0.028725132
43	0x3cbaec6e	0.022817817
44	0x3ca30298	0.019898698
45	0xbc728fe1	-0.014804811
46	0x3cce7924	0.025204249
47	0x3d08b842	0.033378847
48	0x3c02ca0d	0.007982743
49	0x3ab15169	0.001352829
50	0xbcaf1080	-0.021370173
51	0xbb90f4eb	-0.0044237277
52	0x3a897393	0.0010486714
53	0x3d3aea34	0.04563351
54	0x3b3a9b7d	0.0028474026
55	0xbd05cae2	-0.032664187
56	0x3c31bf26	0.010848796
57	0x3cbe7e71	0.023253651
58	0xbc5e9eb7	-0.013587645
59	0xbce15bb8	-0.027509555
60	0xbac83af6	-0.0015276361
61	0xbc82afc8	-0.01595296
62	0x3cb95343	0.02262271
63	0xbca359e2	-0.01994032
64	0xbd133546	-0.035939477
65	0xbc1e7647	-0.009671754
66	0x3d6e1c7e	0.05813264
67	0xbcef6285	-0.029221782
68	0x3c7d4643	0.015458646
69	0xbb936c15	-0.0044989684
70	0xbc2d518c	-0.010578524
71	0xbc65cfa0	-0.014026552
72	0xbb9f879f	-0.004868462
73	0xbc854cfc	-0.01627206
74	0x3d0505f9	0.0324764
75	0x3cf62d3d	0.030050868
76	0x3d1a60aa	0.037689842
77	0xbc922e5b	-0.01784437
78	0x3cc24ee0	0.023719251
79	0x3d01c47a	0.031681515
80	0x3d24a103	0.040192615
81	0xbbed11cb	-0.007234787
82	0xbc2cbedf	-0.010543554
83	0xbc327df6	-0.010894289
84	0xbd0b1fbf	-0.033965822
85	0xbc87039d	-0.016481215
86	0x3cb5e70c	0.022204898
87	0xbbc2375e	-0.0059270104
88	0x3cf86f83	0.03032661
89	0x3c59a2d3	0.013283449
90	0xbca30b29	-0.019902783
91	0x3ccaeaa3	0.024770087
92	0xbc9149ce	-0.017735388
93	0x3d2d4d4b	0.04231004
94	0xbbee202d	-0.0072670192
95	0xbc504186	-0.0127109345
96	0xbca8cea2	-0.020606343
97	0x3c4fe45c	0.012688722
98	0xbcac7731	-0.021052929
99	0x3cc75259	0.024331259

linear2.weight f4 [50, 100]
0	0xbe10fe67	-0.14159547
1	0x3d8671a0	0.06564641
2	0x3d8050e1	0.062654264
3	0xbd179414	-0.037006453
4	0xbd4e8dca	-0.05042819
5	0x3dc3c171	0.095583804
6	0xb933240b	-0.00017084197
7	0x3e10ecea	0.14152876
8	0x3db4d1fb	0.08829113
9	0x3cc1edf4	0.023673035
10	0x3d06b416	0.032886587
11	0x3e0fb5ca	0.14034191
12	0xbdc3d684	-0.095624
13	0xbd2db21c	-0.042406186
14	0x3ced9a2a	0.029004175
15	0xbd83d25e	-0.06436609
16	0x3b860acb	0.004090642
17	0x3d96caf6	0.073629305
18	0xbd24ff92	-0.040282793
19	0xbdbf4bb0	-0.09340608
20	0x3e112b0b	0.14176576
21	0x3ca41069	0.020027356
22	0xbda7b27e	-0.081883416
23	0xbc6aaeec	-0.014323931
24	0x3dd59607	0.10429006
25	0xbd8b3257	-0.06796711
26	0xbd9a0884	-0.075211555
27	0x3c957c3f	0.018247722
28	0x3ddb1649	0.1069761
29	0xbd206f6b	-0.039168756
30	0x3d31c829	0.04340378
31	0x3d9d3a91	0.07677186
32	0x3d4e9655	0.050436337
33	0x3d9cffbd	0.07665966
34	0xbd52d45e	-0.05147206
35	0xbda1f7e5	-0.0790861
36	0x3e018946	0.12650022
37	0x3d072bf7	0.033000913
38	0x3c96d5bf	0.018412469
39	0xbc2bac45	-0.010478084
40	0x3d026478	0.031834096
41	0xbd9119eb	-0.070850216
42	0xbad04b70	-0.0015891623
43	0x3dbede87	0.093197875
44	0x3c2dd37e	0.010609506
45	0xbd0f0b91	-0.03492314
46	0xbac1e74b	-0.0014793662
47	0xbadd26e2	-0.001687255
48	0xbcac0873	-0.021000123
49	0xbd46f022	-0.048568852
50	0x3deee988	0.11665636
51	0x3c05b686	0.008161193
52	0xbd9dd8ad	-0.07707343
53	0x3dcdb867	0.100449376
54	0x3d275575	0.040852983
55	0x3d147e61	0.036253337
56	0xbd9c9ac7	-0.07646709
57	0xbd2a132a	-0.041522183
58	0x3db6b213	0.08920684
59	0x3d302c0a	0.04301075
60	0x3d7dd6f1	0.061972562
61	0x3d280c4a	0.041027345
62	0x3db7e881	0.089798935
63	0x3d2c49a4	0.042062417
64	0xbd84785f	-0.064682715
65	0x3e070166	0.13184127
66	0xbdc3da32	-0.09563102
67	0xbd5970d6	-0.053086124
68	0x3deffa78	0.11717695
69	0xbc894b24	-0.016759463
70	0x3d626cae	0.055279426
71	0x3d967192	0.073458806
72	0x3cf7acbe	0.030233737
73	0x3cff68ac	0.031177841
74	0x3dc6b830	0.097031
75	0xbdb03d7f	-0.086054794
76	0xbd9c4609	-0.07630546
77	0x3cf9dd5b	0.030501058
78	0x3d578432	0.052616306
79	0xbd81089b	-0.063004695
80	0xbd800f4b	-0.06252917
81	0xbc9a4e83	-0.018836265
82	0xbbae1625	-0.0053126984
83	0xbd973088	-0.073823035
84	0xbd6aeb3a	-0.057353236
85	0xbc7a0322	-0.015259536
86	0xbd8a3cf1	-0.06749905
87	0xbc939fcc	-0.018020533
88	0xbd8fd950	-0.07023871
89	0x3d27646a	0.040867247
90	0x3d411cfe	0.04714679
91	0x3de1cded	0.11025605
92	0xbdacbb5c	-0.084341735
93	0x3b36d3d7	0.0027897262
94	0x3d397aaa	0.045282997
95	0xbcc8f3bb	-0.024530282
96	0x3bc1f045	0.005918535
97	0xbd430f9f	-0.04762232
98	0xbca4de08	-0.020125404
99	0xbd3e8c71	-0.046520654
100	0x3dc11471	0.09427727
101	0x3deaca80	0.11464405
102	0x3df2289e	0.11824153
103	0x3dd8df45	0.1058946
104	0x3d4a6932	0.04941673
105	0x3c1956b4	0.009359051
106	0xbd91b4d2	-0.07114567
107	0xbc053e1e	-0.008132486
108	0x3ccc8927	0.024967743
109	0xbd539104	-0.05165197
110	0xbdda10dd	-0.10647748
111	0xbad2e0b9	-0.0016088701
112	0x3cd52687	0.026019348
113	0x3d83d58d	0.06437216
114	0xbd0542aa	-0.03253428
115	0xbdc2826a	-0.09497531
116	0x3d03afca	0.032150067
117	0x3daddb23	0.08489063
118	0xbd2e84d9	-0.042607162
119	0xbd8c35b6	-0.06846182
120	0xbddbcfaa	-0.10732968
121	0x3d1e2b5c	0.03861557
122	0x3d079c21	0.03310788
123	0x3d4d5815	0.05013283
124	0x3da3da6f	0.08000647
125	0x3c01d80a	0.007925043
126	0x3dded4a6	0.10880403
127	0xbd91694f	-0.07100164
128	0xbcf69221	-0.030098977
129	0x3d99a186	0.07501511
130	0x3d9900cd	0.07470856
131	0x3daa70e6	0.08322315
132	0x3d9874eb	0.07444175
133	0x3d934af6	0.07192032
134	0x3da0994e	0.078417405
135	0x3da1db96	0.07903211
136	0x3e0051d1	0.1253121
137	0xbd5a2b33	-0.053263854
138	0xbd76088e	-0.060066752
139	0xbd382766	-0.04495945
140	0xbd90aac7	-0.07063823
141	0x3d51c256	0.051210724
142	0xbd8903ee	-0.06690203
143	0xbd121a3c	-0.03566955
144	0x3e08bef5	0.13354094
145	0x3db10946	0.08644347
146	0xbc8d2a3e	-0.017232057
147	0xbcfc4fdc	-0.030799799
148	0x3ce75646	0.02823938
149	0xbd9f1562	-0.0776775
150	0x3d606db0	0.054792106
151	0x3d27b25a	0.040941574
152	0x3dc1ef06	0.09469418
153	0x3b7c37cf	0.0038485413
154	0xbd1595e0	-0.036519885
155	0x3d390283	0.04516841
156	0xbd37ea8e	-0.044901423
157	0xbd0e7868	-0.034782797
158	0x3c95956e	0.01825973
159	0x3cce9250	0.025216252
160	0xbd5ab31f	-0.05339348
161	0xbd8fc0e9	-0.070192166
162	0x3d9252d9	0.07144708
163	0xbd603722	-0.05474008
164	0x3d16ed9f	0.036847707
165	0xbcbf5ef1	-0.023360701
166	0x3d0e50b1	0.034744922
167	0x3dc05540	0.0939126
168	0x3d776a2b	0.060403984
169	0x3da223cd	0.07916985
170	0xbd851471	-0.064980395
171	0xbca6cf6d	-0.02036258
172	0xbd8aeb4a	-0.06783159
173	0x3aa98675	0.0012933748
174	0x3cbe5847	0.023235453
175	0xbda7887d	-0.0818033
176	0xbd0f12b7	-0.034929957
177	0x3db45bdf	0.088065855
178	0xbd303105	-0.0430155
179	0xbd8cad37	-0.068689756
180	0xbd9e696e	-0.07734953
181	0xbd9c1121	-0.076204546
182	0xbda17337	-0.078833036
183	0x3da4bf96	0.080443546
184	0x3c8764aa	0.016527493
185	0x3d438432	0.047733493
186	0xbc32feab	-0.010924975
187	0x3dc1e717	0.09467905
188	0xbddea140	-0.108706
189	0xbdf79415	-0.12088791
190	0x3d7c3b5e	0.061580054
191	0xbd053df5	-0.03252979
192	0xbd733ece	-0.059386067
193	0xbdd326e2	-0.10310151
194	0x3ddb058c	0.10694417
195	0x3e17172d	0.14754935
196	0xbd4d628d	-0.050142813
197	0xbd3793f9	-0.044818852
198	0x3d785816	0.06063088
199	0x3c2b7cda	0.010466779
200	0xbd3e059b	-0.046392065
201	0xbd8ed8c7	-0.06974941
202	0xbd8f8e71	-0.070095904
203	0x3dd4c33c	0.103888005
204	0x3cd28030	0.02569589
205	0x3d9d0ea7	0.0766881
206	0xbd74fc1b	-0.05981074
207	0x3d645557	0.05574545
208	0xbd925c09	-0.071464606
209	0x3d24702c	0.040146038
210	0x3d758d72	0.059949346
211	0x3d4c4d92	0.049878664
212	0xbbd877d8	-0.0066060834
213	0x3db85e8b	0.09002408
214	0xbd017e45	-0.03161456
215	0x3c6a0038	0.014282279
216	0x3dcfce03	0.101467155
217	0xbd89ec99	-0.067345805
218	0x3d3dabcc	0.046306416
219	0x3dbcc8d3	0.09217992
220	0x3d345b30	0.044032276
221	0xbc04a514	-0.008095998
222	0xbdc41195	-0.09573666
223	0xbd3283c7	-0.043582704
224	0xbdc52b5a	-0.09627409
225	0xbda785d0	-0.081798196
226	0x3db02d8d	0.08602438
227	0xbcb28176	-0.021790247
228	0xbdbd952f	-0.0925697
229	0xbd9c1d72	-0.07622804
230	0xbdabbe17	-0.08385866
231	0xbdc48974	-0.095965296
232	0x3dab0d8b	0.083521925
233	0xbd8b1986	-0.067919776
234	0xbd3c471c	-0.045966253
235	0x3d3f693e	0.046731226
236	0x3ce59f8a	0.028030176
237	0x3ce608b2	0.028080318
238	0xbc474b40	-0.012163937
239	0x3daaef1b	0.08346387
240	0xbdb81df1	-0.08990086
241	0xbd9e1abb	-0.07719942
242	0x3da16000	0.07879639
243	0x3db91fd4	0.09039274
244	0xbc905aed	-0.017621482
245	0xbc96e676	-0.01842044
246	0xbdca7f5e	-0.098875746
247	0x3dcb67b4	0.09931889
248	0xbdee52d5	-0.11636893
249	0xbc3da919	-0.011575961
250	0x3c21427e	0.009842513
251	0xbdc2672b	-0.09492334
252	0x3b96098f	0.004578776
253	0x3dbb807b	0.09155365
254	0xbcf492d8	-0.029855177
255	0xbd7517ce	-0.059837155

linear2.bias f4 [50]
0	0x3cd34cd6	0.025793474
1	0xbdd1a06f	-0.102356784
2	0x3ca05f26	0.01957662
3	0xbd4b01cb	-0.049562257
4	0x3e0c9d0f	0.13731788
5	0xbd53e471	-0.05173153
6	0x3d7fd487	0.06245854
7	0x3d206cd6	0.039166294
8	0xbcbff099	-0.023430156
9	0x3d01e857	0.031715717
10	0x3ddfa42f	0.109199874
11	0x3d3e4d4c	0.046460435
12	0x3db56213	0.08856597
13	0x3e337180	0.17523766
14	0x3db527e5	0.088455
15	0xbd38eaff	-0.045145985
16	0x3d0074bd	0.03136133
17	0xbccae159	-0.024765657
18	0xbce3e1a8	-0.027817562
19	0xbc5a5469	-0.013325789
20	0x3b75b119	0.0037489592
21	0x3dd610bb	0.1045241
22	0xbda79d1d	-0.08184264
23	0x3d1ef303	0.038805973
24	0x3cf01d78	0.029310927
25	0xbd0c587e	-0.03426408
26	0xbdafa5b0	-0.08576524
27	0x3e00b1b8	0.12567794
28	0x3d74462e	0.05963724
29	0x3d424642	0.047430284
30	0xbd98fda6	-0.074702546
31	0x3ca79436	0.020456415
32	0x3d0b4265	0.033998866
33	0xbdaab8d6	-0.08336036
34	0x3d37ae7a	0.04484413
35	0xbcd3f96c	-0.02587577
36	0xbd886ff7	-0.066619806
37	0x3d386190	0.045014918
38	0x3d68c92c	0.056832477
39	0xbccf0330	-0.025270075
40	0x3e1cb464	0.15303189
41	0xbdca8990	-0.09889519
42	0x3ddbb139	0.10727162
43	0xbcf56891	-0.029957088
44	0xbd869d83	-0.06573012
45	0xbd95da32	-0.07317008
46	0x3d83972f	0.0642532
47	0x3cb8f79c	0.022579007
48	0x3d31ca6c	0.043405935
49	0x3ab7693b	0.0013993153

linear3.weight f4 [10, 50]
0	0x3e12352f	0.142781
1	0xbd53e6c1	-0.051733736
2	0x3e1c21e3	0.15247302
3	0x3dcff95c	0.101549834
4	0xbab5de1b	-0.0013875397
5	0x3df449c1	0.1192813
6	0xbdb67efe	-0.089109406
7	0xbc1aa4fb	-0.0094387485
8	0x3dbfcf2e	0.09365688
9	0x3e28679e	0.16445777
10	0xbd2a9401	-0.041645054
11	0xbd94bc04	-0.07262424
12	0xbe845296	-0.25844258
13	0xbe37fb8e	-0.17967054
14	0xbd8ff251	-0.0702864
15	0xbded25a0	-0.11579442
16	0xbdd8818a	-0.105715826
17	0x3da26a03	0.079303764
18	0x3d3120b8	0.043244094
19	0x3d90a3bf	0.07062482
20	0xbd26ea00	-0.040750504
21	0xbe43a229	-0.19104828
22	0xbe00a562	-0.12563089
23	0x3d921c84	0.07134345
24	0xbcf89b20	-0.030347407
25	0xbd4a6c5f	-0.049419757
26	0xbd71502f	-0.05891436
27	0xbe3efe52	-0.18651703
28	0xbd17ac3a	-0.037029482
29	0x3e444161	0.19165565
30	0x3ea0c44e	0.3139977
31	0x3de1422a	0.10998948
32	0xbe000fe7	-0.12506066
33	0x3eb272e7	0.3485329
34	0x3e046857	0.12930427
35	0x3d84e05f	0.06488108
36	0x3d9233a5	0.07138757
37	0xbd4f5fd8	-0.050628513
38	0x3ccc426e	0.02493402
39	0xbe1ef4db	-0.15523092
40	0xbd181f19	-0.037139032
41	0x3dd7a222	0.10528971
42	0xbdf57f40	-0.11987162
43	0xbe59e3f8	-0.2127837
44	0xbe26ca8e	-0.16288206
45	0xbe0513dd	-0.12995858
46	0x3e6e5ab0	0.23276782
47	0xbe0d7fc7	-0.13818274
48	0xbe39ae45	-0.18132885
49	0xbd2a1ac2	-0.041529424
50	0x3d257c12	0.040401526
51	0xbe18c4d1	-0.1491883
52	0x3e6a28bd	0.22867103
53	0xbcb0d181	-0.021584274
54	0x3df8315f	0.12118792
55	0xbd82d120	-0.06387544
56	0x3e4ca183	0.19983487
57	0xbe8ab4c5	-0.2709104
58	0xbcd9ced9	-0.02658789
59	0xbe0e07b4	-0.13870126
60	0xbe717b5b	-0.23582213
61	0xbc5f4313	-0.013626832
62	0xbe5dbf22	-0.21654943
63	0x3d28780a	0.041130103
64	0x3eb32e12	0.34996086
65	0x3d32e537	0.043675628
66	0x3de98ee4	0.11404207
67	0x3e0cc643	0.13747506
68	0x3e4fe5c6	0.20302495
69	0xbde8f3b0	-0.11374605
70	0x3e13348a	0.14375511
71	0xbe212fc6	-0.1574088
72	0xbd48e56f	-0.04904693
73	0xbe63a32a	-0.22230211
74	0x3cdc3369	0.026879983
75	0xbdb19122	-0.0867026
76	0x3bba5af0	0.00568711
77	0xbe127409	-0.14302076
78	0x3d0c7f07	0.03430083
79	0x3e2969b3	0.16544227
80	0xbe104529	-0.14088883
81	0x3ddab0fa	0.10678287
82	0x3b71241e	0.003679521
83	0xbd98fa5c	-0.07469627
84	0x3c16b784	0.009199027
85	0xbd7e4857	-0.062080707
86	0xbe06c51f	-0.13161133
87	0x3dc4a9fe	0.09602736
88	0xbd5d6911	-0.054055277
89	0x3da1fe68	0.07909852
90	0xbe27e3e7	-0.16395532
91	0xbd460050	-0.04834014
92	0x3e91de06	0.28489703
93	0x3d9080de	0.070558295
94	0xbdb3983f	-0.08769273
95	0x3e1232a0	0.14277124
96	0x3c670bbc	0.014101919
97	0xbe4d5dd2	-0.20055321
98	0x3cf6926b	0.030099114
99	0x3e1b1679	0.15145291
100	0xbe5f70e9	-0.21820416
101	0x3e66b6af	0.22530626
102	0x3d155b86	0.036464237
103	0x3e08026b	0.13282172
104	0x3db12f6c	0.08651623
105	0xbe07274d	-0.13198586
106	0xba2e3802	-0.0006645919
107	0xbd984ad8	-0.0743615
108	0x384488bd	4.685739e-05
109	0x3e1047fc	0.1408996
110	0x3e1ee269	0.15516056
111	0xbdf95011	-0.121734746
112	0x3db9246d	0.09040151
113	0xbe84eb2f	-0.2596068
114	0xbe1d7d16	-0.15379748
115	0xbd9c82a5	-0.07642106
116	0xbd8bbce1	-0.06823135
117	0x3e0f2d42	0.13982108
118	0xbe3aa0c0	-0.18225384
119	0x3d397c8c	0.045284793
120	0x3e24c9c0	0.16092587
121	0x3d7811f7	0.060564008
122	0x3d8e5612	0.0695001
123	0xbe32f7b0	-0.17477298
124	0x3d800e7b	0.06252762
125	0x3e02ae30	0.1276176
126	0x3d50f72f	0.051016983
127	0xbe60a73e	-0.21938798
128	0xbde8ce51	-0.11367477
129	0xbe864443	-0.26223955
130	0x3e75193e	0.2393541
131	0xbe358638	-0.17726982
132	0x3dbab29d	0.09116099
133	0x3d7797cd	0.060447503
134	0xbd964f38	-0.073393285
135	0x3d06e118	0.03292951
136	0xbdbe5d87	-0.09295183
137	0x3e457090	0.1928122
138	0x3d90ab56	0.0706393
139	0xbdfbad63	-0.1228893
140	0xbdd4d579	-0.10392279
141	0xbc9144e3	-0.017733043
142	0x3ce3bf10	0.027801067
143	0xbe7edbbd	-0.24888511
144	0xbdee0808	-0.116226256
145	0x3d9b96c7	0.07597118
146	0x3ae7fe8f	0.0017699766
147	0x3e24ed81	0.16106226
148	0xbdd016cc	-0.10160598
149	0x3d258b72	0.04041619
150	0x3e73fd9c	0.23827213
151	0xbc21df4a	-0.009879896
152	0xbd958be4	-0.07302073
153	0xbe3f0097	-0.18652569
154	0xbe1d0b93	-0.15336446
155	0x3db1b23c	0.08676574
156	0x3e3b63e9	0.18299831
157	0x3d45768c	0.04820876
158	0xbd12c10a	-0.035828628
159	0x3ba7b778	0.0051183067
160	0x3db3c909	0.08778579
161	0xbe138728	-0.14407027
162	0xbdf77397	-0.12082594
163	0x3ddd4981	0.108050354
164	0xbdf78343	-0.12085583
165	0xbda6adb4	-0.081386
166	0xbe3f0bc1	-0.18656828
167	0xbde72a4e	-0.11287366
168	0x3e2af4c3	0.16694932
169	0xbd5a0254	-0.053224877
170	0x3d2d30a4	0.042282715
171	0x3c79b9a3	0.015242013
172	0x3e4588ba	0.19290438
173	0xbc95e637	-0.018298252
174	0xbcc33b73	-0.023832059
175	0xbd4d24cf	-0.05008393
176	0xbdc06bfd	-0.09395597
177	0xbd16ebda	-0.03684602
178	0xbe039b2b	-0.1285216
179	0x3e224617	0.1584705
180	0xbe327c64	-0.17430264
181	0x3e144720	0.14480257
182	0x3c6ed7a8	0.014577784
183	0x3d87285d	0.065994956
184	0x3c1b5ece	0.009483052
185	0xbd5414a5	-0.0517775
186	0xbdf32349	-0.118719645
187	0x3d97b0ac	0.07406744
188	0xbd9e5bd1	-0.07732356
189	0xbdae0175	-0.08496372
190	0xbdb13e2e	-0.08654438
191	0x3d32fb3a	0.04369662
192	0x3e2b432b	0.16724841
193	0xbdd7d7e1	-0.105392225
194	0x3e2efea8	0.17089331
195	0xbdb4317e	-0.087985024
196	0x3e6bb89b	0.2301964
197	0xbe771ecb	-0.2413284
198	0xbd7cf943	-0.061761152
199	0x3e6fc3c7	0.23414527
200	0xbdcceb30	-0.10005796
201	0x3e1d3757	0.15353142
202	0xbe37f31e	-0.17963836
203	0x3dad0cda	0.08449717
204	0x3c47336b	0.012158255
205	0x3d783d3f	0.060605284
206	0x3d52f344	0.051501527
207	0xbe2b8553	-0.16750078
208	0xbdf79016	-0.12088029
209	0xbd86a8bd	-0.06575153
210	0x3d0dbfe9	0.034606848
211	0xbe5517c9	-0.20809855
212	0xbc2d7c21	-0.010588677
213	0xbb69c683	-0.00356713
214	0xbe2939d5	-0.16525967
215	0xbdf03496	-0.1172878
216	0x3d3d208a	0.04617361
217	0x3e63645a	0.2220625
218	0xbe5839ad	-0.21115752
219	0x3e0ca506	0.13734826
220	0x3dfdda34	0.123951346
221	0x39e9db67	0.0004460469
222	0x3e2f57f4	0.17123395
223	0xbe621439	-0.22078027
224	0x3d9d2915	0.076738514
225	0x3e045a60	0.129251
226	0x3c9ada1a	0.018902827
227	0xbd2bec91	-0.041973654
228	0xbd0f7e7f	-0.035032745
229	0xbe016a3e	-0.12638184
230	0x3e43c9d2	0.19119957
231	0xbdadf110	-0.08493245
232	0xbe0e99b3	-0.13925819
233	0xbdc3e392	-0.0956489
234	0xbdbcf49e	-0.092263445
235	0xbd59596a	-0.053063788
236	0x3e09587c	0.1341266
237	0x3df0b1e8	0.11752683
238	0x3db70869	0.08937151
239	0xbc45d0ad	-0.012073678
240	0x3c96cd71	0.018408509
241	0x3d863abe	0.06554173
242	0x3e8e704a	0.27820045
243	0xb91e38cc	-0.00015089213
244	0x3db4051d	0.08790038
245	0x3e48aaa7	0.19596349
246	0xbcf4c994	-0.029881276
247	0x3dc3986a	0.09550555
248	0x3e554155	0.20825703
249	0xbe246163	-0.16052775
250	0xbe3f4fef	-0.18682836
251	0xbcff0dba	-0.031134475
252	0xbc8d9442	-0.017282609
253	0x3ddf5566	0.1090496
254	0x3e405ea7	0.18786107
255	0x3dcf5d9d	0.10125277

linear3.bias f4 [10]
0	0xbd775d35	-0.060391624
1	0x3c9c9f16	0.019118827
2	0x3cd06a05	0.025441179
3	0xbd8994e6	-0.06717853
4	0xbe26f3a6	-0.16303882
5	0x3e2cb83e	0.16867158
6	0xbd44cff4	-0.048049882
7	0xbbd8ac91	-0.0066123684
8	0xbdae783e	-0.08519028
9	0xbd689862	-0.05678595
